…
        "id": "sFiloTJc6b9N",
        "colab": {
          "base_uri": "https://localhost:8080/"
        },
        "outputId": "4735f1ae-e798-42f4-eaf8-249877eeb625"
      },
      "outputs": [
        {
          "output_type": "stream",
          "name": "stdout",
          "text": [
            "Model: \"sequential_3\"\n",
            "_________________________________________________________________\n",
            " Layer (type)                Output Shape              Param #   \n",
            "=================================================================\n",
            " conv2d_14 (Conv2D)          (None, 30, 30, 32)        896       \n",
            "                                                                 \n",
            " batch_normalization_10 (Ba  (None, 30, 30, 32)        128       \n",
            " tchNormalization)                                               \n",
            "                                                                 \n",
            " max_pooling2d_9 (MaxPoolin  (None, 15, 15, 32)        0         \n",
            " g2D)                                                            \n",
            "                                                                 \n",
            " dropout_10 (Dropout)        (None, 15, 15, 32)        0         \n",
            "                                                                 \n",
            " conv2d_15 (Conv2D)          (None, 13, 13, 64)        18496     \n",
            "                                                                 \n",
            " batch_normalization_11 (Ba  (None, 13, 13, 64)        256       \n",
            " tchNormalization)                                               \n",
            "                                                                 \n",
            " max_pooling2d_10 (MaxPooli  (None, 6, 6, 64)          0         \n",
            " ng2D)                                                           \n",
            "                                                                 \n",
            " dropout_11 (Dropout)        (None, 6, 6, 64)          0         \n",
            "                                                                 \n",
            " conv2d_16 (Conv2D)          (None, 4, 4, 128)         73856     \n",
            "                                                                 \n",
            " batch_normalization_12 (Ba  (None, 4, 4, 128)         512       \n",
            " tchNormalization)                                               \n",
            "                                                                 \n",
            " max_pooling2d_11 (MaxPooli  (None, 2, 2, 128)         0         \n",
            " ng2D)                                                           \n",
            "                                                                 \n",
            " dropout_12 (Dropout)        (None, 2, 2, 128)         0         \n",
            "                                                                 \n",
            " flatten_1 (Flatten)         (None, 512)               0         \n",
            "                                                                 \n",
            " dense_2 (Dense)             (None, 128)               65664     \n",
            "                                                                 \n",
            " batch_normalization_13 (Ba  (None, 128)               512       \n",
            " tchNormalization)                                               \n",
            "                                                                 \n",
            " dropout_13 (Dropout)        (None, 128)               0         \n",
            "                                                                 \n",
            " dense_3 (Dense)             (None, 100)               12900     \n",
            "                                                                 \n",
            "=================================================================\n",
            "Total params: 173220 (676.64 KB)\n",
            "Trainable params: 172516 (673.89 KB)\n",
            "Non-trainable params: 704 (2.75 KB)\n",
            "_________________________________________________________________\n"
…
